myFirstModel.pth (torch, 2815 bytes, 6 tensors)

linear_layer_stack.0.weight f4 [8, 2]
0	0xc00037f3	-2.0034149
1	0xbe0ca830	-0.13736033
2	0xc036c1b1	-2.855572
3	0x3c9bcc3a	0.019018281
4	0xc0480661	-3.1253893
5	0x3e05aa2b	0.13053195
6	0x3e994aba	0.29939824
7	0x3dd6b013	0.10482802
8	0x3fb2d07e	1.3969877
9	0xbc83dbf6	-0.016096096
10	0x3db7e349	0.08978898
11	0xbbc10c94	-0.005891392
12	0xbfe4c78f	-1.78734
13	0xbe2acb44	-0.16679102
14	0x3fcfbfe7	1.6230439
15	0x3e19bb35	0.1501282

linear_layer_stack.0.bias f4 [8]
0	0x4053eac0	3.311203
1	0x4009f5d4	2.1556292
2	0x3fc29c7d	1.5204006
3	0xbf8db906	-1.107209
4	0xbfc47c9d	-1.5350529
5	0x3fb6bdd2	1.4276679
6	0x3fa36be2	1.2767298
7	0xc019cb2a	-2.4030252

linear_layer_stack.1.weight f4 [8, 8]
0	0xbee80da6	-0.45322913
1	0xbdbb6d36	-0.0915169
2	0x3d0ea774	0.034827664
3	0x3e31f66c	0.17379159
4	0x3d8f69ab	0.070025764
5	0xbddb37b2	-0.107039824
6	0xbf180b57	-0.59392303
7	0x3f0226b1	0.5084029
8	0xbf1e9bad	-0.6195629
9	0xbc81210e	-0.015762832
10	0x3ee6c1ac	0.45069635
11	0x3f0bbd96	0.5458616
12	0xbcbf73c7	-0.023370637
13	0xbe86f536	-0.26358956
14	0xbe768af7	-0.24076448
15	0x3f17016b	0.5898654
16	0xbda5ce04	-0.08095935
17	0x3eb66746	0.35625666
18	0x3f16c6c0	0.5889702
19	0xbe701be1	-0.23448135
20	0x3cddd360	0.02707833
21	0xbd867c4f	-0.06566679
22	0x3e37e000	0.17956543
23	0xbe9a9449	-0.30191258
24	0x3e8c83fd	0.2744445
25	0x3e8931cf	0.26795813
26	0x3ed8d8a1	0.42352775
27	0xbe13452d	-0.14381857
28	0x3d789a5d	0.060694087
29	0x3dede401	0.11615754
30	0x3e1fc2dc	0.15601677
31	0xbcaeb7c6	-0.021327864
32	0xbef1bb64	-0.4721328
33	0xbf161ba0	-0.586359
34	0xbf53c22c	-0.8271816
35	0xbdf75b6b	-0.120779835
36	0x3efd22c6	0.49440593
37	0x3d5ab114	0.05339153
38	0xbe9bc9d4	-0.3042742
39	0xbcebbb8e	-0.028775956
40	0x3eaf23ca	0.34206992
41	0x3e8243d4	0.25442374
42	0x3e8a7f0f	0.27050063
43	0xbbc9b1fc	-0.0061552506
44	0x3e61dcea	0.22056928
45	0xbe0c494c	-0.13699836
46	0x3f0b0d10	0.54316807
47	0xbe5f055d	-0.2177939
48	0x3ee2e8ba	0.4431818
49	0x3f5c7366	0.86113584
50	0x3f3e8213	0.7441723
51	0xbd0a73c8	-0.033801824
52	0xbf0c5bab	-0.54827374
53	0xbe8f0ed4	-0.27941
54	0x3f419f6c	0.75633883
55	0xbf24d75f	-0.6439113
56	0x3d6682cf	0.056277093
57	0x3e6a58c9	0.22885431
58	0x3ec9eba5	0.39437595
59	0x3e1c7a34	0.15280992
60	0xbaaddad2	-0.0013264066
61	0x3eb65dcb	0.35618433
62	0xbea6cd5b	-0.3257855
63	0xbdc31f79	-0.09527487

linear_layer_stack.1.bias f4 [8]
0	0xbf14c196	-0.5810789
1	0xbfd7054e	-1.6798494
2	0x3a9a92fe	0.0011793075
3	0x3ee72f95	0.4515349
4	0xbfe78a29	-1.8089038
5	0xbeed2f82	-0.46325308
6	0x3f6ba1cc	0.9204376
7	0x3fd2c4e5	1.6466337

linear_layer_stack.2.weight f4 [4, 8]
0	0xbf2a7540	-0.6658516
1	0xbf90fabd	-1.1326519
2	0x3e4f9d03	0.20274739
3	0x3ef19675	0.47185102
4	0xbf8d6555	-1.1046549
5	0x3ed5fa08	0.4179232
6	0x3fab011f	1.3359717
7	0x3e92c7a7	0.28667948
8	0x3f13f132	0.5778991
9	0x3f102374	0.563041
10	0x3e5524bc	0.20814794
11	0x3e448992	0.19193104
12	0xbf25c5f2	-0.64755166
13	0xbd619dac	-0.05508201
14	0x3ec4ad2f	0.3841338
15	0x3edd61ba	0.43238622
16	0x3e9ce7c9	0.30645588
17	0xbf3faa4f	-0.74869245
18	0xbf1b62c6	-0.6069759
19	0xbdfaa3d4	-0.12238279
20	0x3e004d68	0.12529528
21	0xbf2c4920	-0.6729908
22	0xbf4d8b11	-0.80290323
23	0x3ecadc82	0.3962136
24	0x3f292ebf	0.66086954
25	0x3fa42b45	1.2825705
26	0xbe6d6da5	-0.23186357
27	0xbed3cd38	-0.41367507
28	0x3fc8bebd	1.5683209
29	0x3ec03828	0.37542844
30	0xbf5b7e58	-0.8573966
31	0xbfbd5212	-1.4790671

linear_layer_stack.2.bias f4 [4]
0	0x3f861dad	1.0477806
1	0x3ea759e0	0.32685757
2	0x3f02936a	0.51006186
3	0xbfc0cdbb	-1.5062784
